…
 BERT model. We then added a `Dropout` and `Linear Layer` as well. We add these layers to ensure the model is able to regularize and classify the data better.\n- In the forward loop, there are 2 outputs from the `BERT` model layer.\n- The output of this, `pooled_output` is passed through the `Dropout` layer and then the `Linear` layer.\n- We set the number of dimensions in the `Linear` layer to be equal to the number of classes we have in the dataset.\n\nThis gives is the following output:\n\n```\nBERT_Classifier(\n  (bert): BertModel(\n    (embeddings): BertEmbeddings(\n      (word_embeddings): Embedding(28996, 768, padding_idx=0)\n      (position_embeddings): Embedding(512, 768)\n      (token_type_embeddings): Embedding(2, 768)\n      (LayerNorm): LayerNorm((768,), eps=1e-12, elementwise_affine=True)\n      (dropout): Dropout(p=0.1, inplace=False)\n    )\n    (encoder): BertEncoder(\n      (layer): ModuleList(\n        (0-11): 12 x BertLayer(\n          (attention): BertAttention(\n            (self): BertSelfAttention(\n              (query): Linear(in_features=768, out_features=768, bias=True)\n              (key): Linear(in_features=768, out_features=768, bias=True)\n              (value): Linear(in_features=768, out_features=768, bias=True)\n              (dropout): Dropout(p=0.1, inplace=False)\n            )\n            (output): BertSelfOutput(\n              (dense): Linear(in_features=768, out_features=768, bias=True)\n              (LayerNorm): LayerNorm((768,), eps=1e-12, elementwise_affine=True)\n              (dropout): Dropout(p=0.1, inplace=False)\n            )\n          )\n          (intermediate): BertIntermediate(\n            (dense): Linear(in_features=768, out_features=3072, bias=True)\n            (intermediate_act_fn): GELUActivation()\n          )\n          (output): BertOutput(\n            (dense): Linear(in_features=3072, out_features=768, bias=True)\n            (LayerNorm): LayerNorm((768,), eps=1e-12, elementwise_affine=True)\n            (dropout): Dropout(p=0.1, inplace=False)\n          )\n        )\n      )\n    )\n    (pooler): BertPooler(\n      (dense): Linear(in_features=768, out_features=768, bias=True)\n      (activation): Tanh()\n    )\n  )\n  (drop): Dropout(p=0.0, inplace=False)\n  (out): Linear(in_features=768, out_features=6, bias=True)\n)\n```\n\n\u003Ch4> Training Details\u003C/h4>\n\nAfter reading latest consensus, experiments on Huggingface and local experimentation, we came to the conclusion that the following hyper-parameters are best for this model and data:\n\n```python\nMAX_LEN = 200\nTRAIN_BATCH_SIZE = 4\nVALID_BATCH_SIZE = 4\nEPOCHS = 45\nLEARNING_RATE = 2e-05\ntokenizer = Be
…
